models/tripmind_v3.pt (torch, 555077 bytes, 6 tensors)

net.0.weight f4 [256, 408]
00000000: bb5a 42bd f95a 4e3d 7fe6 193d c892 9eba
00000010: 8286 08bd 419f 0dbd fd66 32bc 6acf e9bc
00000020: 6dc2 623c 53b0 363d 0f4e babc 543e 5d3d
00000030: 6249 8e3c 5972 763c 53c4 a2bc bf12 89bc
00000040: dd2b dabc 547f e5bc c43c 883d afc9 f33b
00000050: 2da7 d5bc 5698 983d a506 4bbc 52ec a03d
00000060: 486d 433d 9ce2 2b3d d92b da3b b3ea 9bbd
00000070: 91d5 f2bc 03ab 49bc 5405 9f3c 3a11 67bc
00000080: e272 463d 00da 3c3d 4ad8 a43d d32e 2ebd
00000090: 05ee 653d dd07 a2bc 8ed7 8cbc 6935 98bc
000000a0: 947e a6bc b8d4 1b3d 006c b0bd 1c59 7abc
000000b0: d441 e73d cb57 f13c 4216 afbd 3827 0b3c
000000c0: d721 94bd 63f0 b53d 9717 58bd 3f81 963c
000000d0: a85d 5e3a 757d 233d 8a12 57bb 633c 1abd
000000e0: bd0d ad3c 6650 e3bc 7649 4d3a c5c9 09bc
000000f0: 8211 b73d ca80 9b3d 2e7d 2ebd 676d 1dbd
00000100: b4ec 96bd f009 9fbd c6ff 513d db63 d33c
00000110: 8401 c7bc 6bee c13b c5d0 b13d 97ee 883c
00000120: 0c14 86bb 1777 d9bb 9c9a e53a 23cb 0c3b
00000130: 5d4a ae3c 5880 8b3d e2af 46bd 26ae 913d
00000140: db68 813d 90be cb3c 58c2 253d 6a1b 42bd
00000150: b0e7 9abd c22f 4fbd 0ae3 31bb f8ee a13d
00000160: 7cd9 4abd 0152 0cbd 839c 783d a956 18bd
00000170: 9b37 283d eba9 24bd 08f4 5e3d 9183 e7bb
00000180: 5c14 8cbc e7d8 a7bd 7b6b 9fbd feb5 96bb
00000190: 52d8 58bc a228 923d 869f aabc 1809 4bbd
000001a0: c244 9d3d 1092 75bc 7fdb 85bd e9b5 393d
000001b0: d61a b43c ed1f 9dbd a4c0 84bd a632 c83b
000001c0: cce0 4dbd a76c f6bc 0225 b1bd 80b9 75bd
000001d0: da82 3e3d 8a35 0e3c 796c 043c 29da f63c
000001e0: 6589 9a3d a7d6 d13c 2b04 1e39 3219 79bd
000001f0: feab 8c3d 7f02 073c c117 9bb9 328b 82bd
00000200: 988e ccbc 44c0 323d 93c9 c73d 0224 82bb
00000210: 5ef1 98bd 8d16 f43c a2a1 e93b 454e 50bd
00000220: 57e1 debc 433b f1bc a33b f83b 7c01 24bd
00000230: f828 afbc ddba 093d 6b34 ab3b e2e9 bbbd
00000240: 3397 b83d 9159 e9bc 544a e3bc 4caa da3c
00000250: 132d c83d 892b 963d 000e cf3d f001 5fbd
00000260: f708 73bd 73bd 7cbd bb52 5c3d 646e 31bc
00000270: ec63 2bbd 9c00 72bd 59a8 5d3d 46f0 3cbc
00000280: 6890 133c ec81 a8bd f3b8 863c 17dd f13c
00000290: 1336 b3bd b0af 9bbc a07a b33d d625 4f3c
000002a0: 9555 24bd 4c5f e6bd d359 a2bd 1c70 10bd
000002b0: 1c46 9d3d a1ab 1abd 8a0c fe3c 2012 1938
000002c0: 7bda f6bb 3a2e 793d 4894 4e3d 8a1e a23d
000002d0: 1796 60bc 8653 923d 843e 57bc 2dc5 a8bc
000002e0: c23a 94bc 57c0 80bd 4ff5 d2bd eb52 a2bc
000002f0: c03a aebd 8de0 4dbc 9ca8 c1bc ab66 96bd
00000300: ac3d 2ebd 8945 9abc 38a8 ad3c e0e6 8e3c
00000310: 34ce 393c 8939 40bc bb61 80bc 49a9 17bd
00000320: ff0e c33b 9f3b 9d3d a46b 5f3d 49e6 39bc
00000330: 6601 353d fa78 cbbc cc0d 34bc e97e 2bbd
00000340: 3c94 aabb 175b c2bd c9c1 173d ab10 873d
00000350: c83b b63c b10d 16bd a2c0 37bd a880 b6bd
00000360: ad8c 573c 9dd4 b53c d5a0 81bc f13b 95bc
00000370: b181 063d ef2d 433b 1ca2 dd3b a961 1abd
00000380: 6ac5 c23d 09cb ac3c e37d 83bd f3bf 513d
00000390: eb4e f03d 2d23 5cbd a962 c13d 54a7 92bd
000003a0: fa04 cf3c f867 873c 28b5 09bc 42ee d33d
000003b0: f971 4dbd 3df5 53bd 5669 343d c443 5b3d
000003c0: 0b81 873d 80d1 8dbb 008b 9e3c 7b28 913d
000003d0: b137 dd3c a196 b1bd 49d6 03bd 3613 8dbd
000003e0: b18d 193d 62e0 8a3a f153 59bd 15bd d03b
000003f0: c8a8 343c d147 713d 881d a5bd 472b e1bb
-0.04744981 0.050379727 0.037573334 -0.0012098188 -0.0333314 -0.034575704 -0.010888812 -0.028541286
0.0138403 0.04460175 -0.0227423 0.05401452 0.017368976 0.015041911 -0.019869005 -0.016732572
-0.026632244 -0.028014816 0.06652215 0.007439814 -0.026080692 0.07450931 -0.012391721 0.078575745
0.04771164 0.04196416 0.006658059 -0.07613125 -0.029642852 -0.012308839 0.01941172 -0.014103228
0.048449405 0.04610634 0.08049066 -0.042525124 0.056135196 -0.01977914 -0.017192628 -0.018580155
-0.020324029 0.03804466 -0.08614349 -0.015280034 0.112918526 0.029460808 -0.08549167 0.008493237
-0.07233017 0.08883741 -0.052756872 0.018372176 0.0008482584 0.039914567 -0.0032817447 -0.037655246
0.021124715 -0.027748298 0.0007831076 -0.008409922 0.08938886 0.07592924 -0.04259985 -0.038434412
-0.07369366 -0.07765567 0.051269315 0.02580445 -0.024292715 0.005918314 0.08682398 0.016715331
-0.0040917452 -0.006636511 0.0017517391 0.0021483384 0.021275694 0.06811589 -0.04850758 0.07113294
0.06318828 0.02487114 0.040468544 -0.047389425 -0.07563722 -0.050582655 -0.0027143382 0.07906908
-0.049523816 -0.034257893 0.060696136 -0.03719202 0.041068655 -0.04020111 0.054431945 -0.0070652445
-0.017099552 -0.08195668 -0.07784172 -0.004599332 -0.0132351685 0.07136656 -0.02082802 -0.04956922
0.0767913 -0.014988437 -0.06536006 0.0453395 0.021985453 -0.07672105 -0.06482056 0.0061095534
-0.05026321 -0.030081106 -0.08649637 -0.05999136 0.04651151 0.008679757 0.0080825025 0.030133324
0.07545737 0.02561505 0.00015069607 -0.060815044 0.068687424 0.008240341 -0.00029581602 -0.06374206
-0.024970338 0.04364039 0.09755244 -0.0039715776 -0.07467912 0.02979591 0.007129864 -0.050855894
-0.02720706 -0.029447204 0.0075754686 -0.040040478 -0.02138184 0.033625472 0.0052247546 -0.09175469
0.09013214 -0.028485091 -0.027745403 0.026692532 0.09774222 0.073325224 0.10110092 -0.054445207
-0.05933472 -0.06170411 0.053789835 -0.010829542 -0.04184334 -0.059082612 0.054115627 -0.011531895
0.009006597 -0.08227906 0.016445613 0.02952437 -0.08750548 -0.019004673 0.08763623 0.012643298
-0.04012068 -0.11248645 -0.07927289 -0.035263166 0.07679388 -0.037761334 0.031011838 3.6494923e-05
-0.007533369 0.0608351 0.05043438 0.07915981 -0.013707659 0.07144837 -0.0131374635 -0.020601833
-0.018094424 -0.06286686 -0.10300695 -0.019814929 -0.085072994 -0.012565744 -0.02363997 -0.07343801
-0.042539284 -0.018831985 0.021198377 0.017444074 0.011340667 -0.011732467 -0.015671602 -0.037026677
0.0059527154 0.076773874 0.054546013 -0.011346408 0.044190787 -0.02483796 -0.010989618 -0.041869078
-0.005205659 -0.0949003 0.037050042 0.06594976 0.022245303 -0.03663415 -0.044861443 -0.08911258
0.013156098 0.022196108 -0.015823761 -0.018217059 0.032838527 0.0029782017 0.0067637097 -0.037690792
0.0951031 0.021092908 -0.06420495 0.051208448 0.117338024 -0.053744484 0.09442646 -0.071608216
0.025270928 0.016529068 -0.008405007 0.103481784 -0.05015752 -0.05174755 0.04404577 0.053531423
0.0661641 -0.004327953 0.01935339 0.07087799 0.027004095 -0.08671308 -0.03218678 -0.0688843
0.037488643 0.0010595436 -0.05305857 0.0063701966 0.011026569 0.05890638 -0.08062273 -0.006871614

net.0.bias f4 [256]
00000000: 47e1 413d 970b ccbc 3c2f 08bd 2c5b 00bd
00000010: 3a3e 81bc ddf4 c53b 3808 053d 5ec3 d43c
00000020: 9527 2ebd f2c5 ac3c d147 eabc 305f 053c
00000030: 8251 08bd dd93 a1bc 5638 d6bc e2f3 d2bc
00000040: 0645 433d 3a83 bc3c c745 02bc eec1 463c
00000050: b2dd eebc 31d9 043d 6ebb 19bd 55b4 fabc
00000060: c9e4 e1bc 5444 323d 3229 90bc 2e55 50bd
00000070: 2d83 183d cea7 c53a d899 c5bc 076c f6bc
00000080: b917 df3c 5b5f eaba dfee e8bc b750 31bd
00000090: c81c 953c 4ca6 bdbb 4bce 15bd 6abc 4b3d
000000a0: bec7 b3bb 38d3 763a 33d2 113c 547d 03bd
000000b0: ac01 303d 097b 95bc b986 5fbc 6077 b3bc
000000c0: 9631 e6bc d257 323d a04a 04bd 3559 b73c
000000d0: 30fd 383d c5da 253d 8481 b73c 9d98 cd3c
000000e0: 6024 0b3d 3052 473c bec9 40bd a1bc 1f3d
000000f0: f5e6 07bd 78d1 d5bc a42b 1dbd 3316 dc3c
00000100: bb47 22bd fe24 a63c 59eb ffbc b327 34bc
00000110: 2832 613c 50ed 49bc d77d 3d3d f7da 36bd
00000120: b181 423d 0d18 1ebd 3000 39bd d8e7 d93c
00000130: d152 4c3d 45c1 fa39 bbeb 10bd 12b7 70bc
00000140: 58cc 6f3d 1a53 1b3d 5b50 733c be6f 0fbd
00000150: 3437 d7ba 963c 1d3a 07fa bdbc f149 f7bc
00000160: ebf7 0abd 5ac4 1c3c 42d2 083d eff7 d3bb
00000170: 8e82 2c3d 3e29 7dba cd87 aa3c 5953 f43c
00000180: 2349 1dbd 531b cb3c 4ed1 6fbc ae83 e93c
00000190: 2d51 143d e5d3 2cbd acce 27bd 03a5 37bd
000001a0: 9eaf 71bc 7de1 4f3d 6792 483c 8555 50bd
000001b0: 3753 1abc 2b11 283d 7db7 b9bb ec01 3db8
000001c0: 25b3 cfbc 3f8d 423d c83c d4bc d79a efbc
000001d0: 534a 3cbd 0229 203d 972c d7bc 1fa8 77bb
000001e0: 2eee f7bc ef66 87bb dcdd 653c beaf 093d
000001f0: d33f 48bd a3cb f2bc 2678 47bc 3c9c 28bc
00000200: 47dc f13c e9e4 e33c df90 2ebb 31eb 2bbd
00000210: 56aa e93a 67f1 c8bc 5ff3 ca3c c506 483c
00000220: abca 1bbb ca85 15bc 0305 07bd 91fb f9bc
00000230: da75 073d d70b 80bc 6808 dc3c b8de 9e3c
00000240: 352d 813c 9edf 8c3c e8db 3ebd c466 24bd
00000250: 6f33 4abd be27 113c b4d4 473c 8997 373d
00000260: 71e1 963c a604 4dbc c59a 33bc f566 323d
00000270: 197e d43c 8e91 bc3c d443 9f3c 3adf 9a3a
00000280: 000e 2cbc 3a11 29bd 988f 563d 9df7 16bc
00000290: dc1d 44bd 46e2 483c e7d5 333d 9776 f33b
000002a0: a8a2 293c 9ade 883c 993e 06bd 9db3 7ebc
000002b0: 204a 7a3c 21ad 39bd 6217 13bd 8328 d63c
000002c0: 67df febc 5788 b4bc 3079 3dbc b344 d239
000002d0: 7595 cfbc f033 adbc f157 f8bb 6925 f83c
000002e0: 6884 093c cb83 0dbd 898e 9a3c 17bc ab3c
000002f0: 0e17 efbb 1274 08bd 28a5 ff3c e75c 1dbd
00000300: f949 8a3c d129 a43b bcd0 bd3c e5ae 9dbc
00000310: 9f6f 1abd c277 25bb 4bb8 f8bb bd90 98bc
00000320: 22a3 f5bc f8f4 ebbc 5a46 dab9 36a1 3f3d
00000330: 64e7 d7bb c45c 69bc abcd fcbc 92b3 8dbc
00000340: b725 15bd ab38 3b3d 972f 2dbb 9c55 3b3d
00000350: 4805 c7bc 9e58 103d 8e8b ff3c f434 7ebb
00000360: db0e f8bb e476 b33c 5b97 69bc bf9b 053d
00000370: 3866 3dbd 64bd a3bc f43d 23bd a102 be3c
00000380: 9870 17bd 777e 393c bb8f 3abd d521 af3c
00000390: 22c8 2f3d 5f4e e43c 8802 63bc 73fb bfbc
000003a0: 7c90 073d a525 fe3c 00e4 a03c 48e9 c0bc
000003b0: 4b2b 98bb 2421 babb 2812 1bbb a2c6 3fbb
000003c0: c266 02bd 5496 81bc 7e0d a1bc 0e9b 7cbc
000003d0: d342 20bd b81e aa3c 5842 11bc 4f42 473d
000003e0: 24e8 8dbc 4b66 96bc 1f7d cd3c 09f9 2e3c
000003f0: fc60 67bc f64c 26bd f8e1 1e3d 0aac 15bd
0.04733398 -0.02490787 -0.03324817 -0.03133695 -0.015776742 0.006041153 0.03247854 0.025972065
-0.042518217 0.021090481 -0.028598698 0.00814037 -0.033280857 -0.019723827 -0.02614991 -0.025751058
0.047673248 0.023011792 -0.0079512065 0.012131197 -0.029158447 0.032433692 -0.037532263 -0.030603567
-0.027574914 0.043522194 -0.017597768 -0.050862484 0.037234474 0.0015079917 -0.02412121 -0.030080808
0.027232992 -0.0017881201 -0.028434215 -0.043289866 0.0182022 -0.0057876464 -0.03657369 0.049740233
-0.0054864576 0.00094156293 0.008900213 -0.032101944 0.042970344 -0.018247144 -0.01364296 -0.021907508
-0.028099816 0.043540783 -0.03229773 0.022381404 0.045163333 0.040491838 0.022400625 0.025097186
0.033970237 0.012165591 -0.047067396 0.03899825 -0.033179242 -0.026100859 -0.038371697 0.026866054
-0.03961919 0.020281311 -0.031240152 -0.010995793 0.013744868 -0.012324646 0.04626259 -0.044642415
0.047486965 -0.038597155 -0.045166194 0.02659981 0.049883667 0.00047827713 -0.03538106 -0.014692085
0.058544487 0.03792105 0.014850701 -0.035018675 -0.001641965 0.0005998103 -0.023190511 -0.030186625
-0.03392784 0.009568298 0.033403642 -0.006468765 0.042116694 -0.00096573296 0.020816708 0.0298249
-0.038399827 0.024793303 -0.0146373045 0.028505173 0.036210228 -0.042194266 -0.040968582 -0.0448351
-0.014751343 0.05075215 0.012241936 -0.050862808 -0.009419254 0.041031998 -0.0056676255 -4.50629e-05
-0.025353977 0.047497984 -0.025907889 -0.029248638 -0.04596932 0.039101608 -0.02626638 -0.0037789417
-0.03026494 -0.0041321437 0.014029946 0.033614866 -0.048888993 -0.029638117 -0.012174642 -0.010291155
0.029523982 0.027819114 -0.0026636643 -0.041972343 0.0017827253 -0.024529172 0.024774252 0.012208645
-0.0023771923 -0.009126136 -0.032963764 -0.030515464 0.033071376 -0.015630646 0.026859477 0.01939331
0.015768627 0.017196473 -0.046596438 -0.040137067 -0.049365457 0.008859573 0.0121967085 0.04482225
0.018418046 -0.012513315 -0.010962193 0.04355522 0.025939034 0.023018625 0.019441523 0.0011815794
-0.010501385 -0.041276194 0.052383035 -0.009214309 -0.04788004 0.012260979 0.043905165 0.0074299085
0.010353722 0.016707707 -0.03277454 -0.015545753 0.015276462 -0.045331124 -0.03591097 0.026142364
-0.031112386 -0.022037668 -0.011564538 0.00040105506 -0.025339821 -0.02114293 -0.007578843 0.030291276
0.0083933845 -0.034549516 0.018866794 0.020963712 -0.0072964495 -0.03331382 0.031206682 -0.038418677
0.016880976 0.0050098677 0.023170821 -0.019248435 -0.037704106 -0.0025248383 -0.007590329 -0.018623704
-0.029985014 -0.028803334 -0.00041632616 0.046784602 -0.006588863 -0.014243308 -0.030859789 -0.01729754
-0.03641292 0.04570834 -0.002642607 0.04573594 -0.02429451 0.035240762 0.031194475 -0.0038788887
-0.0075701303 0.021907277 -0.014257277 0.032619234 -0.04624006 -0.01998777 -0.039854005 0.023194613
-0.036972612 0.0113216555 -0.04554723 0.021378437 0.04291547 0.027869401 -0.013855584 -0.02343533
0.033096775 0.03102381 0.019639969 -0.023548737 -0.004643833 -0.00568022 -0.0023661945 -0.0029262681
-0.03183628 -0.015818752 -0.019659754 -0.015417827 -0.03912623 0.020766601 -0.008865915 0.04864722
-0.017322607 -0.018359324 0.025084076 0.010679492 -0.014122244 -0.04060074 0.03878972 -0.036541022

net.3.weight f4 [128, 256]
00000000: c9d9 2cbd af1f 9d3c d9ea 503d 1f79 443c
00000010: 99b4 94bd dd25 853c 0fdd 63bc d51e 613c
00000020: 82bd 6dbd 3731 8ebd 1d95 6bbd 0c0a 95bc
00000030: 8649 febb e254 75bd d3de 13bd 26b0 b9bc
00000040: b47b 6abd a893 173d 39a1 42bd 7e70 9bbc
00000050: 8081 ebbc 26c5 b83c 9125 babc 924e 153d
00000060: 972c 2c3d 5563 1f3d 9616 663d 3442 3dbd
00000070: 74c5 ad3c e3f6 78bd 1910 2f3d 8149 21bd
00000080: 16af 12bc ab1d 2bbd 731e 50bd 51e8 98bc
00000090: e512 8cb7 441d 1e3d 99f7 473a 0cac 95bd
000000a0: de9f 25bd 09e2 563c 595f 003d d0b6 bfbc
000000b0: 84d5 093d 2048 38bd 010b 253d 98b2 033d
000000c0: d6eb c83c 30bf 11bd c90e bc3b 33d7 483d
000000d0: a4ab f13c 3223 46bd 7550 183d acf5 7a3d
000000e0: 00f1 be3b 6e72 0a3c d7d7 483d 2f37 fbbc
000000f0: d642 3c3d b7e5 a8bc d985 0bbd 0ecc 99bc
00000100: a430 123d d0aa ce3c 0e8f bebc d614 99bc
00000110: c52a f33c 7add e23c f137 a03c a21f 193d
00000120: 5edc 7cbc d8df 6a3d cbb4 3c3d 6c11 5c3d
00000130: e833 03bc 6636 87bd a66b 8b3c ad45 7ebc
00000140: 60fb a8bc cbd3 a7bc a409 55bd 765d 0e3c
00000150: 7090 31bd efe3 a9bb e1c4 beb7 aac6 88bc
00000160: 8485 58bd 21b2 79bd cb47 edb9 05c1 c63c
00000170: 6342 963c f967 54bd 8a79 eebc 696b d0bc
00000180: 9beb b0bc 97f3 41bd a65f 2bbc 6da4 fb3c
00000190: 6248 2a3d 1a21 4ebd be0c 60bd d291 ecbc
000001a0: 253d 2cbd 8182 41bd 7915 22bd e1eb 393d
000001b0: 1871 b2bb 1127 1d3c bfbf 4fbd a588 d63c
000001c0: 6c06 9cbb c1d9 55bd 10f6 5abc 40a0 dd3c
000001d0: ab7d 68bd ec47 523d 2f25 0cbd 3e10 abbc
000001e0: 5e7e 10bc 20dd 09bd adbf d63c 38f9 86bd
000001f0: e348 0d3d 6e18 353d c29b 85bc 83d2 afbc
00000200: 58ee c03b ea2d 7bbd 7369 5dbd 0474 c53c
00000210: c4e5 4d3d 9f3d 3d3c 8761 45bd 2a09 e13c
00000220: 37ba 52bd 6c7a 1d3c 01e6 093d becf 31bc
00000230: 5beb 193c 624d 833c 4afd 953c 78a3 dabb
00000240: 3eca d03c 63e4 51ba fff8 1bbd a5cf 77bb
00000250: 97db 533c 7c04 f2bc 7c62 95bc 6351 82bd
00000260: bd79 d63c 77e6 d2bc 8aeb c9bc 38b2 533d
00000270: d63c 0cbd 9b5a 26bc 1763 a0ba 6d80 94bd
00000280: 835c ee3c 7d16 533d 0739 7abd 17ad 70bc
00000290: 020b 5ebd 97c0 7abd 2e08 d83c fbf3 963c
000002a0: 7bdb b43c 056a 193b f2aa d83c 9bbc 62bd
000002b0: ab4e 15bc e982 8cbd 4a47 09bd 98b8 783b
000002c0: 2bd8 6bba cb06 d5bc ead9 8cb9 6f12 e3bc
000002d0: b7f3 373a 41b1 9e3c 3c2c a13a fdca c1ba
000002e0: 74b6 71bd 5477 72bd 7a80 0ebc 9d46 203d
000002f0: 9e9e c93b f8a5 cbbb 5baa 1c3d ed0a 2abd
00000300: e040 f6bc a6de 683c 4a5c 2abd cb30 f5bb
00000310: e8ac 86bd 1d9e 3cbc d68c 50bd 3474 20bd
00000320: f07b e53c 2dc1 323c 9903 5639 e574 2b3d
00000330: a45e 51bc 1cc5 383d 7c00 853c 06b5 3ebc
00000340: 3c46 cabc 4202 02bc 5e8b 76bc 1b13 213c
00000350: ce60 46bc 7119 943c 8ecb 62bc 33d2 8dbb
00000360: 1bc3 d03c c1cc cb3c e0b3 0a3d ab45 35bd
00000370: 6268 3b3b afeb 9dbb 2950 c5bc ef37 873c
00000380: c989 19bb 6db0 73bb 2469 82bd 333c b4bc
00000390: ed42 1bbc a863 54bd d793 ebbc 9bec 8ebd
000003a0: 697b 753b 8357 4b3d eae9 623d 738c 503d
000003b0: a345 f1bb 7173 333c 2309 d43c 3b71 edbc
000003c0: a60d 2c3d 4de1 89bd b059 d8bb 2269 6ebd
000003d0: 7ae5 1b3c b20e 3bbd 069f 9cbb adb6 71bd
000003e0: 976a 2cbd e68e cdbc 23b8 a23b 96f7 fd3c
000003f0: e586 3bbb 95b4 a33c 3992 c03c ddc9 3ebd
-0.042199884 0.019180147 0.05100522 0.011991768 -0.07261009 0.016253406 -0.013907685 0.013740261
-0.058042057 -0.06942981 -0.057515252 -0.018193267 -0.0077602295 -0.059895404 -0.036101174 -0.022667002
-0.05724688 0.03700605 -0.047517035 -0.018974539 -0.028748274 0.022554945 -0.022722991 0.036451884
0.04203471 0.03891309 0.056173883 -0.046205714 0.021212317 -0.060782325 0.04273996 -0.03937674
-0.008952877 -0.04177634 -0.05081029 -0.018665465 -1.6698099e-05 0.03860213 0.00076281425 -0.07308206
-0.040435664 0.013115414 0.03134093 -0.023402601 0.03365089 -0.04499066 0.040293697 0.032152742
0.024526518 -0.03558272 0.005739067 0.049033355 0.02950079 -0.04837341 0.037186105 0.061269447
0.0058270693 0.008450134 0.049033966 -0.030665962 0.045962177 -0.02061735 -0.034063194 -0.018774059
0.03569092 0.025227934 -0.023261573 -0.018686693 0.02968348 0.027693499 0.019557925 0.037383683
-0.015433399 0.05734238 0.046070855 0.053727552 -0.008007981 -0.066021726 0.017019104 -0.015519542
-0.020627677 -0.020486733 -0.052011147 0.008689275 -0.043350637 -0.0051846425 -2.2741444e-05 -0.016696293
-0.052861705 -0.060960893 -0.00045257653 0.02426196 0.018342203 -0.05185697 -0.029110689 -0.025441842
-0.02159672 -0.047351446 -0.010459816 0.030718053 0.041572936 -0.050324537 -0.054699652 -0.028878126
-0.0420505 -0.0472436 -0.03957126 0.045390967 -0.0054456107 0.009591834 -0.050719973 0.026188204
-0.0047615077 -0.05220962 -0.01336433 0.027053952 -0.05676047 0.05133812 -0.03421515 -0.020881768
-0.008819191 -0.033658147 0.026214445 -0.065905035 0.03449334 0.04421275 -0.016309623 -0.021462684
0.005887788 -0.061323084 -0.054055642 0.024103172 0.05026795 0.011550336 -0.048188712 0.02747019
-0.05144712 0.009611707 0.033666614 -0.010852752 0.009394492 0.01602811 0.018309254 -0.006672319
0.025487062 -0.00080067496 -0.038079258 -0.0037812975 0.012930772 -0.029543154 -0.018235438 -0.063631795
0.026181096 -0.02574466 -0.024648447 0.051683635 -0.034237705 -0.010153438 -0.0012236562 -0.07251058
0.029096847 0.05153512 -0.06108954 -0.014689705 -0.054209717 -0.061218824 0.026371088 0.018426886
0.022077313 0.002340914 0.0264487 -0.05535565 -0.009112994 -0.06860907 -0.033515252 0.0037951823
-0.000899675 -0.026004216 -0.0002686524 -0.02771875 0.00070172123 0.01937163 0.0012296508 -0.0014785227
-0.05901189 -0.05919583 -0.008697623 0.039129842 0.006152942 -0.0062148534 0.0382484 -0.041514326
-0.030060232 0.01421324 -0.04159192 -0.007482623 -0.06575948 -0.0115123065 -0.05091556 -0.03917332
0.0280132 0.0109103145 0.0002040997 0.041859526 -0.012778912 0.045109853 0.016235583 -0.011639839
-0.024691693 -0.007935109 -0.015047876 0.009831215 -0.012108041 0.018078538 -0.0138424765 -0.004328036
0.025483659 0.024877908 0.03386295 -0.044255894 0.0028596153 -0.0048193554 -0.024086075 0.016506163
-0.0023428074 -0.0037184015 -0.0636771 -0.022001361 -0.009476406 -0.051852852 -0.028757019 -0.06978723
0.0037457591 0.049644005 0.05539886 0.050915193 -0.0073630377 0.010952816 0.025883263 -0.028984657
0.042005204 -0.06732426 -0.0066024885 -0.05820573 0.009515161 -0.04566831 -0.0047796993 -0.059012104
-0.04209384 -0.025092553 0.0049657985 0.031001847 -0.002861434 0.01998357 0.023507224 -0.04657923

net.3.bias f4 [128]
00000000: f853 903a 0071 3ebd 2f76 66bd dcdb acbb
00000010: 6bc3 433b cc3f 243a b667 bf3c 1b5f 83bb
00000020: e67e 4b3d 15ac 483c 1c2e ab3a 3ccb 6d3d
00000030: 3fe3 8d3c 62e8 3c3d 1eb0 fe3b 778b 66bd
00000040: 2dc9 1fbd f150 48bb e3da 123d 68bb 283d
00000050: 2278 5bbd 9862 35bd 61c8 62bd 9e0d 2dbd
00000060: 0114 1b3d b08d b5ba 9348 3d3d 3a3a 583d
00000070: 6550 55bd 45eb 463d 171a 813d f380 c9bb
00000080: df9f 2f3d 9c4c 033d 60f1 adbc dd13 7f3d
00000090: f508 93bc 2101 253d 46bd 0b3d 9c36 30bd
000000a0: 4e33 233d 181f 3c3d 14f5 243d 32cb 623b
000000b0: 9b92 3dbd 1d5c e13c eb44 16bd 1e82 9b3c
000000c0: ba96 0f3b 004e 5cbd 2273 4abd 6eb5 28bd
000000d0: b91e 56bd b0bc 4eba 8b72 143d 01a0 c03c
000000e0: 7cce 37bd b443 13bb 8a79 063d bc62 77bd
000000f0: 7611 423c 087a 063d e964 23bb 8565 293d
00000100: b9d4 8e3c 47e2 563c f987 14bc e453 25bd
00000110: 1c1e a1bc d7f2 133c 4cde f23c 3e75 78bd
00000120: 98d1 9c3b 954b f1bc 4268 383c 9635 f9bc
00000130: 871a 2a3d 0912 00bd 0e8b 663d 013d 64bd
00000140: 0fcd 17bd af16 983c 9429 5fbb faf0 463d
00000150: a437 87bd 26fb 0fbd e778 5ebd 5bf8 2ebd
00000160: 5d21 4bbd 14e5 5dbd 30aa 403d 2182 cdbc
00000170: 86fe 5abd 162b 68bd df4e 303d bb0a b13c
00000180: 5c9b 303d f00e a6bc 1891 82bc daad 363d
00000190: b884 81bd e256 c7bc ed1e 013d ccde 123c
000001a0: 7bca 3f39 6ce7 0bbb 3ad8 debc 15e6 083d
000001b0: b59c 4fbd c019 703c 780d a4bc 4c38 cbbc
000001c0: 81d9 3ebd 6518 85bd 77d3 523d b90a f6bc
000001d0: 36f1 07bb 73bf 26bd 5c34 0dbc b43a edbc
000001e0: 2870 42bd 8557 913c acd1 d4ba fa70 633d
000001f0: 9feb 68bd 4a42 1d3d 2454 0ebd 2bdb 54bd
0.0011011353 -0.046494484 -0.056265052 -0.0052752327 0.0029871117 0.000626561 0.023364883 -0.00400914
0.049681567 0.012248059 0.0013060006 0.058055148 0.017320273 0.046120055 0.0077724596 -0.056285348
-0.039010216 -0.0030565823 0.035853278 0.04119435 -0.053581364 -0.04428348 -0.055366877 -0.042249314
0.037860874 -0.001385143 0.04621179 0.052789904 -0.052078623 0.048564214 0.06303804 -0.006149405
0.042877074 0.032055482 -0.02123326 0.062274802 -0.017948607 0.04028428 0.034116052 -0.04302083
0.03984385 0.04592809 0.040272787 0.0034605977 -0.046282392 0.027509743 -0.03668682 0.018982943
0.0021909908 -0.053785324 -0.049426205 -0.04118865 -0.052275393 -0.0007886393 0.03624205 0.023513796
-0.044874653 -0.0022470774 0.032830752 -0.060396895 0.011844983 0.03283122 -0.0024931973 0.041356582
0.017435418 0.013115472 -0.0090656215 -0.040363207 -0.019667678 0.0090300655 0.029647015 -0.060658686
0.0047857277 -0.029454986 0.011255326 -0.03042106 0.041529205 -0.0312672 0.056284957 -0.05572224
-0.037060793 0.018565504 -0.0034051882 0.048569657 -0.066024095 -0.035151623 -0.05431452 -0.04271732
-0.049592365 -0.054173544 0.047037303 -0.025086464 -0.05346539 -0.056681715 0.043043967 0.021611562
0.043116912 -0.020270795 -0.015938327 0.04459939 -0.06324142 -0.024333421 0.031523634 0.008964252
0.0001829061 -0.0021347655 -0.027202714 0.03342255 -0.050686557 0.014654577 -0.020025954 -0.024807118
-0.046594147 -0.064987935 0.0514712 -0.03003441 -0.0020743138 -0.040709924 -0.0086184405 -0.028958656
-0.04747024 0.017741928 -0.0016236803 0.055527665 -0.05686533 0.038393296 -0.03474821 -0.051966827

net.5.weight f4 [3, 128]
00000000: 23ae 31bd 316d 15bd d979 1bbc f21f 3dbc
00000010: 3827 21bc 7b4b 653d 5159 583d 8d92 abbd
00000020: 3d28 80bd 928f 2ebc ec03 6fbd cc31 f63b
00000030: 34b6 b3bc d5ff a9bd 4528 d03c fe9d 9ebc
00000040: 2663 aabd e185 193d 3d9c 6d3d 89eb 8abd
00000050: 783e 84bd 77d1 42bc 8ab8 16bc bad7 60bd
00000060: 37a1 b53c 812a b3bd 7cd8 fa3b 532e 52bc
00000070: d03c 203d 2c6b 9dbc b269 b4bc cfea 9cbd
00000080: 6090 44bb 0df6 27bb f603 a3bd 8450 793a
00000090: e8a5 563d 3e38 dbbc d3d7 c43c efc1 043d
000000a0: cdfb a63d 38f5 753d 4f06 7fbb 7986 563d
000000b0: 4f3c a13d db72 48bd 0296 e73c 7d77 ccbc
000000c0: bd98 b03d 36a8 d7bc aada 9d3d 9bb8 42bd
000000d0: 2b45 1c3d 60eb 053d 9605 c1bd 8eaf a2bc
000000e0: 3246 d7bd e985 cfbc 0501 9a3d f84e 9bbb
000000f0: 03a2 103d 2ea9 973c 274d 91bd 0c1e a3bd
00000100: 38e0 3dbd f3e7 00bd 0104 f43c cf83 4c3c
00000110: 3d01 e5bb dbac c6bd 8d10 4c3d 865a 8bbd
00000120: 6fae b23c c55c 55bc 974c ddbc 2a02 56bc
00000130: d1b4 0abd 8b83 263d 8732 8f3d 0d71 633d
00000140: a637 1fbd 7e91 9dbd 740a bfbc 8b08 82bd
00000150: a658 debc 4295 15bd 9dd1 003c 9262 1c3c
00000160: a061 313d 4f21 8b3a 1d26 2d3b f09a bfbc
00000170: 015c d9bc 6d54 573d 0545 203d 1be7 843d
00000180: 7142 6a3d e72b 723c 4f0e a7bd 6ae4 d4bc
00000190: 312b 1dbc 9936 0fbd 122e 593d f5cb 44bd
000001a0: c0a7 65bd 7209 4abd 30e0 b0bc 042b 453d
000001b0: 531e 283b c100 7f3d 8f90 043d 235e 99bd
000001c0: 380e 90bd 57e4 75bb f614 553d d783 4b3c
000001d0: 08f8 173d ce9a c53c 7cae 393d ad33 dfbc
000001e0: c10c 3e3d 6d40 493d f414 983d 6402 0ebc
000001f0: 0ec1 3dbd 5561 63bd c531 693d d4fa 5c3d
00000200: a4aa 57bc 336e 9bbb b6f1 7abc 7a2f ad3d
00000210: 289e b93c e17c cbbc 8af0 17bd 2210 5d3d
00000220: 5da6 3d3d f5e8 59bc f5b1 89bd ad23 8abd
00000230: 0e39 80bd f102 21bd 6987 a73c 3261 88bc
00000240: 7d4f 213d 6142 ac3d 0598 bd3c 96e9 1cbd
00000250: 9b89 933b cadd 0d3d 87df 2abc 3244 adbc
00000260: 76e9 38bd b04e f63c 7c20 893d 7f18 ac3c
00000270: 565e 29bb 1e28 3ebd cb51 853d 193f a23d
00000280: f5eb 6abb bbac 9e3c b89b 50bc 2255 de3c
00000290: ddea 7abd 6b30 ad3d 1dae a73d 6f30 db3c
000002a0: c0ae c33c a721 893d 15b7 163d c125 333d
000002b0: 99c7 803c 7e49 813d d372 a33c ccc3 bf3c
000002c0: 37a7 993d 9008 dc39 73ed 72bd cea0 f8bc
000002d0: 6f9c 12bd b0f4 b33c 8f14 3dbd ea2f 55bc
000002e0: 9bb3 963d a269 623d 14a1 333c af09 8fbd
000002f0: 7e22 8c3d fe8d 6cbd 334b 80bc a4f2 5e3d
00000300: a42b 833c c866 94bd fbc3 8e3d 24e5 d93c
00000310: 8da0 93bc 49d3 eabc eb6b 623d e11f 1fbd
00000320: b2d8 043d 53db 16bd 7a1f 8fbd 42d1 d6ba
00000330: b93e 133d 7acc 3abd 6b54 2cbd c3ed f53c
00000340: 7797 5cbd 2ea9 eabc 7c37 58bd 72a6 22bc
00000350: 95a5 92bd f590 efbc 113d cf3c f7e0 0b3c
00000360: 2f17 65bd 1654 ecbc fae8 6d3a a835 75bd
00000370: ddbd 22bd 4ad7 2c3c 240f bc3d ac05 b0bc
00000380: c9a4 a0bd d40a 36bd f5a7 2d3d 3be5 2ebd
00000390: 4ab2 7cbd 69d9 ae3d 0f2f aabd 0aba ab3c
000003a0: 396f a2bd e629 f13b 1f62 96bd 8cf6 b53d
000003b0: 506d 7d3d 69e2 d2bb 4499 67bd ba26 943d
000003c0: 2f7e 243b ff34 9e3d dda5 8d3d d57c 273d
000003d0: e713 633d 862e 453d b29c 9cbc 2684 993d
000003e0: eb40 a73c 45e9 2fbb c105 7cbd 8f5b 7c3d
000003f0: 8324 16bd af57 613d 53d5 8fbd 6924 8fbd
-0.04337896 -0.036481086 -0.0094895 -0.011543261 -0.009836011 0.055980187 0.052819554 -0.08377562
-0.06257675 -0.010654347 -0.05835335 0.0075132605 -0.021937467 -0.08300749 0.025409827 -0.019362446
-0.08319692 0.037481192 0.05801033 -0.06783206 -0.064572275 -0.011890761 -0.009199271 -0.054893233
0.0221716 -0.08748341 0.0076552015 -0.012828427 0.039120495 -0.019216143 -0.022023056 -0.07661974
-0.002999328 -0.0025628835 -0.0795974 0.0009510594 0.052404314 -0.026760217 0.024028694 0.032411512
0.08153496 0.060048312 -0.0038913672 0.052374337 0.07872831 -0.04893766 0.028269771 -0.02495932
0.086228825 -0.026325326 0.077077225 -0.047539335 0.0381519 0.032695174 -0.094248936 -0.019859102
-0.105114356 -0.025332408 0.07519726 -0.0047396384 0.035310756 0.018513288 -0.07094794 -0.07964715
-0.04635641 -0.031471204 0.029787065 0.0124825975 -0.006988673 -0.09700938 0.04982047 -0.06804375
0.021811692 -0.013022606 -0.02701406 -0.013062039 -0.033863846 0.040652793 0.06992059 0.055527736
-0.03887143 -0.07693766 -0.023320414 -0.06349286 -0.02714188 -0.036519296 0.007862476 0.009544985
0.043305993 0.0010614785 0.0026420422 -0.02338931 -0.026533129 0.05257075 0.039128322 0.06489392
0.05719227 0.014780975 -0.08157026 -0.025987823 -0.009592817 -0.034964178 0.05302245 -0.04804607
-0.056068182 -0.049325414 -0.021591276 0.048136726 0.002565284 0.06225658 0.032364424 -0.07488658
-0.07033962 -0.0037520134 0.052021943 0.01242157 0.037101775 0.024121668 0.045332417 -0.02724632
0.04639888 0.049133707 0.074258715 -0.008667562 -0.04632669 -0.055512745 0.05693223 0.053950146
-0.0131632425 -0.0047433614 -0.015316417 0.08456321 0.022658423 -0.02483982 -0.03709463 0.053970464
0.046301235 -0.01330017 -0.06723396 -0.06745086 -0.06260882 -0.039309446 0.02045031 -0.016647909
0.039382447 0.08411098 0.023143778 -0.038308702 0.004502488 0.034635343 -0.01042927 -0.021150682
-0.04514452 0.030066818 0.06695649 0.021007774 -0.0025843582 -0.046424977 0.065097414 0.07922191
-0.0035846208 0.019369474 -0.012732439 0.027140204 -0.06125914 0.084565006 0.08187506 0.026756493
0.023887038 0.06695872 0.036795694 0.043737177 0.015720176 0.06312846 0.019952213 0.023408793
0.07502597 0.0004196805 -0.05930848 -0.030350115 -0.035793718 0.021967262 -0.046162184 -0.013011912
0.07358476 0.05527652 0.010963697 -0.06984269 0.06842516 -0.0577526 -0.015660858 0.05443062
0.01601202 -0.072461665 0.06970974 0.02659852 -0.018020893 -0.028665202 0.0552787 -0.03884876
0.03243322 -0.036830258 -0.069884256 -0.0016389268 0.03594849 -0.04560516 -0.042072695 0.0300206
-0.053855386 -0.028645124 -0.05278729 -0.009927379 -0.071604885 -0.029243926 0.025297673 0.0085375225
-0.055930313 -0.028848689 0.0009075549 -0.059865624 -0.03973185 0.010549376 0.09182575 -0.02148708
-0.0784393 -0.04444392 0.042396504 -0.04269908 -0.061693467 0.085375614 -0.08309757 0.020962734
-0.0793137 0.007359731 -0.07342934 0.08884916 0.061871827 -0.0064356816 -0.05654265 0.07233949
0.0025099625 0.07724952 0.069164015 0.040890533 0.055438902 0.04814007 -0.019117687 0.074959084
0.020416697 -0.002684192 -0.061528925 0.061610755 -0.036655914 0.055015262 -0.0702311 -0.069893666

net.5.bias f4 [3]
00000000: 5c74 533d e5c3 5c3d 7fcb 9c3d
0.05162464 0.053897757 0.07656001
